dl_dev/ch12/iris_classifier.pt (torch, 3600 bytes, 4 tensors)

weight f4 [16, 4]
0	0xbe64c4e2	-0.2234073
1	0xbf86214c	-1.0478911
2	0x400b397b	2.1753833
3	0x3fe8f441	1.819954
4	0x3eba0855	0.36334482
5	0x3ef2256f	0.47294185
6	0xc023295e	-2.5493999
7	0xbfd75e96	-1.682574
8	0xbef135ac	-0.4711126
9	0x3e930de9	0.2872155
10	0x3fd90b09	1.6956493
11	0x3f90be2c	1.1308036
12	0xbec801d7	-0.39063904
13	0xbe59a0e2	-0.21252778
14	0x400ed534	2.231763
15	0x3fd334a0	1.6500435
16	0xbf0c0859	-0.5470024
17	0xbfcd0762	-1.6017878
18	0x402109e0	2.5162277
19	0x3fca6501	1.5812074
20	0xbf0b970e	-0.54527366
21	0xbf206ad4	-0.62663007
22	0x4017b26c	2.370265
23	0x3fafcc06	1.3734138
24	0x3fbdeff0	1.4838848
25	0xc0744bd9	-3.8171294
26	0x40dfe220	6.996353
27	0x3ea716eb	0.32634673
28	0x3ecb14e8	0.39664388
29	0x3f8c3729	1.0954334
30	0xc018bf29	-2.3866675
31	0xbfc8c156	-1.5684001
32	0x3f27c7f1	0.6553946
33	0x3f4d3058	0.8015189
34	0xc04094d1	-3.009083
35	0xbfe47a16	-1.7849758
36	0xbf91c366	-1.1387756
37	0x404423a1	3.0646746
38	0xc09e75a6	-4.9518614
39	0xbe4ace55	-0.19805272
40	0xbf0b5720	-0.5442982
41	0xbff5c22c	-1.9199882
42	0x40136eae	2.3036304
43	0x3fc645b0	1.5490017
44	0x3ed593d1	0.41714337
45	0x3f08ad1b	0.5338914
46	0xc02cd96c	-2.7007704
47	0xbfd63ab9	-1.6736671
48	0x3ec223b9	0.3791788
49	0x3f0f68d9	0.5601936
50	0xc03a1fbd	-2.9081872
51	0xbffb8acd	-1.9651734
52	0xbf3eb178	-0.74489546
53	0xc0059a93	-2.0875595
54	0x4011ec6a	2.2800546
55	0x3fd1e1e1	1.6397058
56	0x3fe04a52	1.7522681
57	0xc0846440	-4.1372375
58	0x40e6e1da	7.21507
59	0x3d0562ac	0.032564804
60	0xbf6d4765	-0.92687064
61	0xc00bcb19	-2.184271
62	0x40204b60	2.5046005
63	0x3fc45547	1.5338525

bias f4 [16]
0	0xbe28f627	-0.1650015
1	0x3e2945f8	0.16530597
2	0x3e851c60	0.2599821
3	0x3e03fbd3	0.12889032
4	0xbe55d074	-0.208803
5	0xbdf919bc	-0.121631116
6	0x3fb73a91	1.4314748
7	0x3e898955	0.2686259
8	0x3c348f8f	0.011020555
9	0xbf3bd836	-0.73376787
10	0xbd7e2e44	-0.06205584
11	0x3e57e454	0.21083194
12	0x3e0b85f7	0.13625322
13	0x3e945527	0.28971216
14	0x3f4f38b9	0.80945927
15	0x3ef920a9	0.4865773

weight f4 [3, 16]
0	0xc086110a	-4.18958
1	0x3fd302e1	1.6485254
2	0xc02426b5	-2.5648625
3	0xc053bf2f	-3.308544
4	0xc08eae6d	-4.458792
5	0xc070eef3	-3.7645843
6	0xc0acbb3c	-5.3978558
7	0x401c4abc	2.4420614
8	0x3fca8bf2	1.5823958
9	0x40c8cfaa	6.2753496
10	0xc087774f	-4.233314
11	0x3fc245a2	1.51775
12	0x3fc68fc2	1.5512621
13	0xc0848c3b	-4.142118
14	0xc0ace096	-5.4024153
15	0xc09de58d	-4.9342713
16	0xbf85b31f	-1.0445288
17	0x3f52a5d5	0.8228429
18	0xbf8ea19e	-1.1143072
19	0xbfb4902c	-1.4106498
20	0xbf2b335f	-0.6687526
21	0xbfac15c2	-1.344414
22	0x3dbc97a8	0.09208614
23	0x3f2983b4	0.6621659
24	0x3f7b254f	0.98103803
25	0xbf7a46ef	-0.97764486
26	0xbebf4fd7	-0.373656
27	0x3f5fd868	0.87439585
28	0x3f9fd177	1.2485799
29	0xbf148fb9	-0.58031803
30	0x3d88cd98	0.06679839
31	0xbe9b38af	-0.30316684
32	0x3fe36d1c	1.7767673
33	0xc001731d	-2.022651
34	0x3f8fa780	1.1222992
35	0x3fe04507	1.7521065
36	0x3fd5903a	1.668464
37	0x3fd9554c	1.6979156
38	0x3ed2f53f	0.41202733
39	0xc0085368	-2.1300907
40	0xc018c9c0	-2.3873138
41	0xbef048f3	-0.46930656
42	0x3fb0866c	1.3791022
43	0xc004d1de	-2.0753093
44	0xbffad525	-1.9596297
45	0x3f6eecb0	0.93329906
46	0x3ea6fd89	0.32615307
47	0x3f81c1a4	1.013722

bias f4 [3]
0	0x3f2bf40f	0.6716928
1	0xbd95d92a	-0.073168114
2	0xbd02a2ba	-0.03189347
